assets/model.tflite (tflite, 4288 bytes, 2 tensors)

sequential/dense/MatMul1 f4 [100, 4]
-0.1932766 -0.22201276 -0.100668535 0.09869462 0.059333652 0.07096633 -0.13836348 -0.20788002
0.18830109 -0.20303935 0.061870962 -0.055590168 0.06956124 -0.199464 0.023763388 0.09043053
0.0069035143 0.09152648 -0.020124003 -0.22959483 0.112763524 0.13587922 -0.054279223 0.19733602
-0.16385151 -0.04317993 0.047381103 0.03915915 -0.04391253 0.15247637 -0.13862404 0.17872313
-0.19875371 -0.14725736 -0.08423711 -0.1761629 -0.09145324 -0.17025211 0.1516656 0.021312386
0.115508735 0.17248824 0.17012316 -0.22492808 -0.14844471 -0.1595971 -0.02135259 0.0015901178
0.1608412 0.120219976 -0.19187088 -0.15125442 -0.06653507 0.058484405 0.09430224 0.08450249
0.14595687 -0.20518626 0.2352395 -0.16460559 -0.00454019 -0.13550463 0.054858536 -0.0019061714
0.12120113 0.10353729 -0.08399762 -0.09824978 -0.1024743 0.059901178 0.22251299 -0.113181666
-0.1863696 0.19036657 7.404387e-05 -0.18204387 -0.180272 -0.1615233 -0.0062188953 -0.116796546
0.1620608 -0.039369315 0.16831023 -0.17138804 0.17049435 0.13218513 -0.0955022 0.087958515
-0.044858232 0.0031039417 0.1395407 -0.19188228 0.17010161 0.15546814 -0.05909984 0.21484366
0.08085215 -0.002338186 0.078721166 -0.014061794 -0.0069116354 0.1992765 0.15846792 -0.18202686
-0.12329415 0.21670774 0.04819742 -0.08248453 0.10852826 -0.07949717 0.09605321 0.14387125
-0.22209701 -0.0029836893 -0.23784895 -0.19667718 -0.07641454 0.18306676 -0.18202773 0.18935838
0.14936858 -0.010140657 -0.22348571 -0.016695753 -0.20562859 -0.034935877 -0.1592708 0.029672772
0.111977816 0.045936793 -0.23194617 0.10453114 0.05772403 -0.034032613 -0.16592827 0.17786154
0.20406929 0.013945997 -0.05255872 0.1827937 0.21175843 -0.06420748 -0.21881215 0.14439559
0.21789825 -0.22457744 0.12605965 0.22888374 0.012678742 -0.10215287 0.090002745 -0.031359598
-0.23391855 8.3491206e-05 -0.16059054 0.00073082745 0.19758376 -0.16336755 0.08298829 0.15956062
-0.07401994 0.2333957 0.21651971 -0.14504234 -0.08636622 0.14852929 0.01820907 -0.062199324
-0.2263512 -0.08641255 0.20058101 -0.09272346 0.021627575 0.08845711 0.11472809 0.08270225
-0.09829272 -0.1671181 0.044949293 0.020840019 -0.023563594 0.1467495 -0.022549972 -0.23330757
0.012075961 0.10690534 -0.22496937 -0.11598932 0.23536795 -0.23722309 0.09630558 0.011034459
0.05982542 -0.052322775 0.18424529 -0.20219164 0.1807504 -0.20574868 0.14590248 -0.22813705
-0.121516325 -0.13404131 -0.020775631 -0.22145258 0.02312836 -0.0042267144 -0.13562152 0.23207405
-0.030386299 0.23004144 0.040102094 0.1918726 0.08464673 -0.023109242 -0.048595652 0.09929699
0.16631815 0.10645482 0.092898875 -0.021996439 -0.22724655 -0.018671677 -0.023108214 0.21540797
0.008197561 -0.055576995 -0.044586107 -0.1364902 -0.009814873 -0.20473604 -0.083297774 0.041446924
-0.07517792 0.21749347 -0.020974576 -0.22826086 0.16744533 -0.09358978 0.09838274 -0.15822367
-0.17851919 0.17092022 -0.1719507 0.16885653 -0.13001344 -0.009204239 -0.1688831 -0.19038585
-0.031068802 -0.1193142 -0.08879648 0.08344191 -0.055184945 0.15403715 -0.12839904 -0.012783095
00000000: 4dea 45be 5057 63be 4e2b cebd 6820 ca3d
00000010: d807 733d cc56 913d 28af 0dbe 80de 54be
00000020: 00d2 403e 8ce9 4fbe 686c 7d3d 84b2 63bd
00000030: 2076 8e3d 4a40 4cbe 70ab c23c a433 b93d
00000040: e036 e23b 3c72 bb3d 18db a4bc e81a 6bbe
00000050: 90f0 e63d ec23 0b3e e453 5ebd 7412 4a3e
00000060: b1c8 27be 70dd 30bd b012 423d 5865 203d
00000070: a0dd 33bd c422 1c3e 76f3 0dbe 3203 373e
00000080: 1886 4bbe a2ca 16be 8284 acbd 0c64 34be
00000090: d64b bbbd 9256 2ebe 3a4e 1b3e 5097 ae3c
000000a0: d88f ec3d c2a0 303e c434 2e3e 8c53 66be
000000b0: e401 18be 6c6d 23be a0eb aebc 806b d03a
000000c0: 8eb3 243e e435 f63d cd79 44be 70e2 1abe
000000d0: 8a43 88bd 588d 6f3d 8821 c13d a40f ad3d
000000e0: b875 153e 591c 52be a0e2 703e 5e8e 28be
000000f0: e0c5 94bb bac1 0abe 58b3 603d 80d8 f9ba
00000100: 4c38 f83d 5c0b d43d f206 acbd 2e37 c9bd
00000110: 0cde d1bd f05a 753d 72da 633e cacb e7bd
00000120: acd7 3ebe 74ef 423e 0048 9b38 b569 3abe
00000130: 3999 38be 5d66 25be e0c7 cbbb 0733 efbd
00000140: 44f3 253e b841 21bd 8459 2c3e 5980 2fbe
00000150: 1296 2e3e 8a5b 073e a896 c3bd 9823 b43d
00000160: 44bd 37bd 806b 4b3b c2e3 0e3e ca7c 44be
00000170: 1e2f 2e3e 0a33 1f3e ac12 72bd faff 5b3e
00000180: d095 a53d 403c 19bb 9038 a13d 7063 66bc
00000190: 007b e2bb 240f 4c3e 6a45 223e 4065 3abe
000001a0: a581 fcbd a2e8 5d3e a86a 453d a6ed a8bd
000001b0: 1044 de3d 6acf a2bd 8cb7 c43d fc52 133e
000001c0: 666d 63be 008a 43bb ad8e 73be be65 49be
000001d0: 3a7f 9cbd da75 3b3e 7a65 3abe 2ae7 413e
000001e0: 14f4 183e 0025 26bc 70d9 64be 88c5 88bc
000001f0: 4d90 52be ec18 0fbd e217 23be 5014 f33c
00000200: a054 e53d 3828 3c3d 4c83 6dbe 6c14 d63d
00000210: 0870 6c3d c865 0bbd 1ae9 29be 5621 363e
00000220: 8af7 503e c07d 643c d047 57bd 462e 3b3e
00000230: 34d7 583e 367f 83bd 4b10 60be 70dc 133e
00000240: b820 5f3e a1f7 65be c815 013e 8060 6a3e
00000250: 80ba 4f3c 8635 d1bd 5c53 b83d ec72 00bd
00000260: 5888 6fbe 0018 af38 d971 24be 0095 3f3a
00000270: 6653 4a3e d349 27be c4f5 a93d dc63 233e
00000280: c497 97bd 48ff 6e3e 58b7 5d3e fb85 14be
00000290: c6e0 b0bd 1018 183e 302b 953c b8c4 7ebd
000002a0: 9cc8 67be 10f9 b0bd 1c65 4d3e cce5 bdbd
000002b0: 502c b13c 0029 b53d 90f6 ea3d cc5f a93d
000002c0: b24d c9bd 0221 2bbe c01c 383d b0b8 aa3c
000002d0: 7008 c1bc 8045 163e b8ba b8bc 2ee8 6ebe
000002e0: 40da 453c 30f1 da3d 5f5e 66be cf8b edbd
000002f0: 4c04 713e 9cea 72be dc3b c53d e0c9 343c
00000300: 800b 753d 6850 56bd ccaa 3c3e 530b 4fbe
00000310: a216 393e c8af 52be 7667 153e c29c 69be
00000320: 8ddd f8bd 2042 09be a831 aabc 77c4 62be
00000330: b077 bd3c 4080 8abb 5ee0 0abe d2a4 6d3e
00000340: b0ec f8bc fc8f 6b3e 1842 243d 407a 443e
00000350: 445b ad3d 984f bdbc 3c0c 47bd 385c cb3d
00000360: 4e4f 2a3e fc04 da3d c441 be3d e031 b4bc
00000370: 52b3 68be 58f5 98bc 704d bdbc e893 5c3e
00000380: 104f 063c b4a4 63bd ec9f 36bd 16c4 0bbe
00000390: 90ce 20bc 53a6 51be 0698 aabd 40c4 293d
000003a0: e2f6 99bd 9cb6 5e3e e0d2 abbc 37bd 69be
000003b0: ca76 2b3e 00ac bfbd e47c c93d 6305 22be
000003c0: bccd 36be b605 2f3e d813 30be bae8 2c3e
000003d0: 3e22 05be 60cd 16bc b1ef 2cbe 82f4 42be
000003e0: 0084 febc 015b f4bd eeda b5bd 98e3 aa3d
000003f0: 9c09 62bd eabb 1d3e 0a7b 03be 3070 51bc

sequential/dense_1/MatMul f4 [3, 100]
0.18230724 0.0077054948 0.010313958 0.110489815 0.0011416674 -0.12229749 -0.16324195 0.04092157
0.06846976 -0.14274085 -0.217413 0.024806887 0.22316477 -0.089884445 -0.028170466 -0.12540346
-0.18849733 0.03983456 0.14591292 -0.19354218 -0.24024422 -0.035825104 -0.0090871155 0.042567134
-0.03752689 -0.05377537 -0.005696699 0.029098302 -0.13885364 -0.07769251 0.017547876 -0.17600265
0.06208229 0.030231059 -0.09678151 -0.12037076 -0.1642317 0.060628533 0.22057334 0.062300265
-0.012956634 0.002206102 0.008026183 -0.040277645 -0.08202335 -0.07218702 0.07480359 0.20763052
0.22261435 -0.0916439 0.11210975 0.19050002 0.23082906 -0.03611949 -0.08110714 -0.12180796
0.12758386 -0.204324 -0.09704989 -0.07344228 0.02840823 0.17881814 0.09899515 0.1941843
-0.19144592 -0.15705031 -0.12386348 0.13655663 0.09166542 -0.09769322 0.115217894 0.2112526
0.07831892 0.109325945 -0.018893346 0.1300599 0.10313967 -0.005534023 0.086468995 -0.1266162
-0.20865479 -0.014850453 0.0547162 -0.17000622 -0.0065471977 -0.062133685 0.069824725 0.2159316
-0.016829088 -0.13353564 0.09970057 0.23260802 -0.09117514 -0.15499717 -0.23973957 -0.0046575814
0.050936162 -0.16123138 -0.18977208 0.014441878 -0.13568759 0.017971843 -0.103644386 -0.2366459
0.10742098 -0.06256746 -0.10709193 0.22551623 0.033775687 0.12604353 -0.18110678 0.08559698
0.1276769 -0.0026392937 -0.09856588 0.0568974 -0.17092139 -0.04781799 0.14604345 0.21616009
0.19989705 0.103777945 0.13026738 -0.058308944 -0.22379106 0.18871957 0.11738947 0.08819854
-0.0076362044 0.19996974 0.17644003 -0.19319968 -0.19113593 0.1017977 0.008219585 0.090583295
0.0048715323 0.17256379 -0.18831462 0.03886345 0.18560138 -0.19400787 -0.061502203 0.22096631
-0.056912363 -0.08006531 -0.18622705 0.18316954 -0.03239441 0.15455961 -0.10600546 -0.15377608
-0.008834437 -0.22309439 0.21372306 -0.088514954 -0.05558552 0.04963705 -0.21807198 -0.20274794
-0.13996384 0.09768671 -0.010327235 -0.15130493 -0.05427715 -0.04913476 -0.024595693 -0.052763
-0.14616503 -0.052669033 -0.20359814 -0.16520458 0.13987067 -0.11097221 0.18839955 0.097485274
0.00265719 0.067956984 -0.1258676 0.14727074 0.103903204 0.17366207 -0.05184725 0.0074718148
0.23433569 0.21400613 -0.2009241 0.19728366 -0.08736317 -0.059344545 0.01726371 0.104855746
-0.0984616 -0.07893677 -0.18515784 0.1591472 -0.008734658 -0.16918984 0.07939753 0.041831315
0.19509193 0.23490268 0.0051992387 0.116708845 0.18857914 -0.027650163 -0.2038918 0.21852595
0.108944625 0.106925875 0.20266274 -0.008351013 -0.0067134947 -0.09451912 -0.22416343 -0.1655826
-0.23877853 -0.13780901 0.0082500875 0.0062398612 -0.16159707 0.1547172 0.10996124 0.05101818
0.056538135 -0.13576189 -0.13194405 0.19584817 0.12008959 -0.23257671 0.022438556 -0.124972925
-0.19627303 -0.13885537 -0.17798094 0.15861204 -0.20546699 0.080776095 0.01673323 -0.2344413
-0.025927767 0.068739474 0.2096717 0.11198816 -0.18841624 -0.09553027 -0.15066615 0.19343767
0.19366416 -0.19136468 0.09685153 0.20880494 -0.22652261 -0.19583564 -0.22367984 -0.0787974
00000000: c0ae 3a3e 607e fc3b e0fb 283c 7c48 e23d
00000010: 00a4 953a 1b77 fabd e628 27be 609d 273d
00000020: e039 8c3d a82a 12be 83a1 5ebe d037 cb3c
00000030: 4e85 643e 5615 b8bd c0c5 e6bc c469 00be
00000040: 7205 41be 9029 233d 326a 153e ec2f 46be
00000050: 9502 76be 58bd 12bd 20e2 14bc e05a 2e3d
00000060: ccb5 19bd 9043 5cbd 60ab babb 905f ee3c
00000070: a62f 0ebe 401d 9fbd 90c0 8f3c 0a3a 34be
00000080: 004a 7e3d 20a7 f73c 6235 c6bd f284 f6bd
00000090: 5b2c 28be a055 783d fadd 613e 902e 7f3d
000000a0: 1048 54bc 4094 103b 4080 033c 2cfa 24bd
000000b0: dcfb a7bd cad6 93bd a032 993d 189d 543e
000000c0: 04f5 633e ccaf bbbd cc99 e53d 7012 433e
000000d0: 745e 6c3e 08f2 13bd 801b a6bd 7476 f9bd
000000e0: 58a5 023e 503a 51be 18c2 c6bd e868 96bd
000000f0: 60b8 e83c 1a1c 373e f8bd ca3d 40d8 463e
00000100: 660a 44be ccd1 20be 23ac fdbd 80d5 0b3e
00000110: 14bb bb3d 6213 c8bd 5cf7 eb3d 9a52 583e
00000120: ac65 a03d 48e6 df3d 38c6 9abc 6c2e 053e
00000130: e43a d33d c056 b5bb a816 b13d ada7 01be
00000140: 9aa9 55be 504f 73bc 181e 603d 1c16 2ebe
00000150: e089 d6bb e47f 7ebd 4400 8f3d 2c1d 5d3e
00000160: 28dd 89bc 91bd 08be d02f cc3d cc30 6e3e
00000170: 08ba babd 94b7 1ebe 4a7e 75be a09e 98bb
00000180: 70a2 503d d719 25be 9d53 42be a09d 6c3c
00000190: b0f1 0abe b039 933c 8243 d4bd 4e53 72be
000001a0: 88ff db3d 5e23 80bd 0453 dbbd baed 663e
000001b0: 6058 0a3d 8e11 013e 0e74 39be 784d af3d
000001c0: bcbd 023e 00f8 2cbb e8dc c9bd 400d 693d
000001d0: 0406 2fbe ccdc 43bd 6a8c 153e 1259 5d3e
000001e0: d0b1 4c3e 8889 d43d d064 053e 5cd5 6ebd
000001f0: 7c29 65be b43f 413e e469 f03d 70a1 b43d
00000200: 2039 fabb dec4 4c3e b2ac 343e 23d6 45be
00000210: 23b9 43be 507b d03d 70ab 063c bc83 b93d
00000220: 60a1 9f3b 90b4 303e 8cd5 40be 482f 1f3d
00000230: 4a0e 3e3e 00aa 46be bce9 7bbd fe44 623e
00000240: f01c 69bd 48f9 a3bd 4eb2 3ebe cc90 3b3e
00000250: 00b0 04bd e044 1e3e 6419 d9bd 7a77 1dbe
00000260: 50be 10bc db72 64be 38da 5a3e 5447 b5bd
00000270: a4ad 63bd 3850 4b3d 434e 5fbe 289d 4fbe
00000280: ae52 0fbe f80f c83d 9033 29bc aeef 1abe
00000290: b851 5ebd 8841 49bd e87c c9bc 041e 58bd
000002a0: 49ac 15be 7cbb 57bd 087c 50be 642b 29be
000002b0: 423a 0f3e 6645 e3bd d0eb 403e 5ca6 c73d
000002c0: 4024 2e3b 082d 8b3d 70e3 00be 24ce 163e
000002d0: 34cb d43d 78d4 313e c85d 54bd 20d6 f43b
000002e0: b2f5 6f3e 6c24 5b3e 0cbf 4dbe ba04 4a3e
000002f0: 76eb b2bd 4413 73bd a06c 8d3c 9cbe d63d
00000300: 3ca6 c9bd 9aa9 a1bd 049a 3dbe 7cf7 223e
00000310: d01b 0fbc 1a40 2dbe 2c9b a23d 5057 2b3d
00000320: 2ec6 473e 548a 703e 605e aa3b 0c05 ef3d
00000330: e41a 413e 9882 e2bc 03c9 50be 44c5 5f3e
00000340: 5c1e df3d f4fb da3d d286 4f3e b0d2 08bc
00000350: e0fc dbbb 3e93 c1bd 198b 65be 7c8e 29be
00000360: 5c82 74be ce1d 0dbe 602b 073c c077 cc3b
00000370: b479 25be 306e 1e3e 5c33 e13d 70f8 503d
00000380: 8894 673d 2a05 0bbe 571c 07be 6c8c 483e
00000390: 88f1 f53d 9728 6ebe 10d1 b73c cef1 ffbd
000003a0: ccfb 48be 1a30 0ebe a340 36be 326b 223e
000003b0: f065 52be f06d a53d 2014 893c 6111 70be
000003c0: 7866 d4bc 48c7 8c3d 2eb4 563e 0c5a e53d
000003d0: 30f0 40be 60a5 c3bd 3a48 1abe 8614 463e
000003e0: e64f 463e 1af5 43be 185a c63d f6d0 553e
000003f0: 8bf5 67be 2389 48be 540c 65be 8860 a1bd
